gru_model.pth (torch, 112608 bytes, 9 tensors)

gru1.weight_ih_l0 f4 [192, 28]
0	0xbcfa5024	-0.030555792
1	0xbdb1a262	-0.0867355
2	0x3d19903d	0.037491072
3	0x3d98f695	0.07468907
4	0x3d8be8bd	0.06831501
5	0xbd0425d8	-0.032262653
6	0x3da8b0e7	0.082368664
7	0x3d9fba86	0.077992484
8	0x3ce9f468	0.028558925
9	0xbd564940	-0.05231595
10	0x3d8849c3	0.06654694
11	0x3d06ccf1	0.03291029
12	0xbcbd9e3a	-0.023146737
13	0xbde1c7e1	-0.11024452
14	0xbd942e0c	-0.07235345
15	0x3d85f518	0.065408885
16	0x3d482b15	0.04886921
17	0xbd74200e	-0.059600882
18	0xbca1aabf	-0.019734738
19	0x3df6e999	0.12056274
20	0xbdd0813f	-0.10180902
21	0x3d4675e1	0.04845226
22	0x3d27c4e6	0.04095926
23	0xbdcf3cf7	-0.1011905
24	0x3d5ecca9	0.054394398
25	0x3d9fd693	0.07804599
26	0x3dad5244	0.084629565
27	0x3baec914	0.005334029
28	0x3d2b7b64	0.04186572
29	0xbc92a229	-0.01789959
30	0x3dc3b0a7	0.09555178
31	0x3d8dbc72	0.06920709
32	0xbcefad97	-0.029257579
33	0xbd307708	-0.043082267
34	0x3df555c8	0.11979252
35	0xbc959165	-0.018257806
36	0xbdbf6398	-0.09345168
37	0xbb94a8a3	-0.0045367046
38	0xbda141aa	-0.078738526
39	0x3e0481c3	0.12940125
40	0xbd4bb558	-0.04973349
41	0x3d723a46	0.059137605
42	0xbd252ca4	-0.040325776
43	0x3d1d6720	0.038428426
44	0x3d36302b	0.04447953
45	0x3d09788b	0.033562224
46	0xba44427f	-0.00074867153
47	0xbde7f21d	-0.11325476
48	0xbd95baa7	-0.07310992
49	0xbdc9b378	-0.09848684
50	0xbdb51644	-0.088421375
51	0xbdb5e999	-0.08882446
52	0xbdda1d2b	-0.106500946
53	0xbd7487c6	-0.059699796
54	0xbd8b0cff	-0.06789588
55	0xbdd44a6d	-0.10365758
56	0xbdfdda96	-0.123952076
57	0x3d8921d6	0.06695907
58	0xbdc905e7	-0.09815579
59	0x3db18e0e	0.08669673
60	0xbca4e3b6	-0.020128112
61	0xbda41b25	-0.0801299
62	0xbd98013e	-0.07422112
63	0x3d302a62	0.04300917
64	0x3d9d488a	0.07679851
65	0x3c77fcc7	0.01513595
66	0xbdf7fd7a	-0.12108894
67	0x3c277d62	0.010222765
68	0x3d73dacf	0.059534844
69	0x3d9b7155	0.07589976
70	0x3c04db51	0.00810893
71	0xbaedf446	-0.0018154464
72	0xbd55b7bc	-0.052177176
73	0xbd272e53	-0.040815663
74	0xbdb8d3a3	-0.090247415
75	0x3dda4781	0.106581695
76	0x3cfbb96d	0.030728066
77	0xbd332063	-0.04373206
78	0x3dc6c9b7	0.09706443
79	0xbd2dbd94	-0.042417124
80	0x3d777d1a	0.06042204
81	0x3d75fb51	0.060054127
82	0x3c7d3fe6	0.015457129
83	0x3d609b54	0.054835632
84	0xbda84e36	-0.082180426
85	0x3c74bc9e	0.014937548
86	0xbd178396	-0.036990725
87	0xbdbf0799	-0.09327621
88	0xbd3fa2bc	-0.046786055
89	0xbd850b2b	-0.06496271
90	0x3d1fb3ac	0.038989708
91	0xbcd200b5	-0.025635103
92	0x3da06335	0.07831422
93	0xbd8ae80a	-0.06782539
94	0xbd9575d8	-0.072978675
95	0x3d024f57	0.031813946
96	0x3cdea84a	0.027179856
97	0xbd8a100c	-0.06741342
98	0x3da163e7	0.07880383
99	0xbe0dadde	-0.13835856
100	0x3ded2782	0.11579801
101	0x3d813057	0.06308048
102	0xbd4add6e	-0.049527578
103	0x3ca9c093	0.02072171
104	0xbd605e4f	-0.05477744
105	0xbd38a539	-0.045079444
106	0xbdbeb27a	-0.093113855
107	0x3a93feef	0.0011291186
108	0x3e08d663	0.13363032
109	0xbdb33ef1	-0.087522395
110	0xbd45eea9	-0.048323307
111	0xbcdd53b3	-0.02701745
112	0x3dd53918	0.104112804
113	0xbd1e3d6e	-0.038632803
114	0x3d778858	0.060432762
115	0xbd424fb4	-0.047439292
116	0x3df471ff	0.119358055
117	0xbd468b09	-0.048472438
118	0x3d9772d6	0.0739495
119	0x3bd5c886	0.0065241484
120	0x3a31ee3c	0.0006787514
121	0x3dda0863	0.10646131
122	0x3d0e7657	0.034780826
123	0x3cba94fc	0.02277612
124	0xbdd80c3a	-0.10549207
125	0x3d8994bb	0.06717821
126	0x3d2b4e94	0.041822985
127	0xbdc8a2f0	-0.09796703
128	0x3db40868	0.08790666
129	0x3dd3816b	0.10327419
130	0xbddd4279	-0.10803694
131	0x3ccaf903	0.024776941
132	0x3c41df43	0.011833015
133	0xbc689463	-0.014195534
134	0xbd3fba2c	-0.046808407
135	0x3dabafc8	0.08383137
136	0xbd1b2e75	-0.0378861
137	0xbc401fad	-0.011726302
138	0xbdec20af	-0.115296714
139	0xbc9d9e91	-0.01924065
140	0x3ccc87ed	0.024967158
141	0xbdb64c93	-0.08901324
142	0x3d46efea	0.048568644
143	0xbdd71856	-0.105026886
144	0x3d240376	0.040042363
145	0x3da1dd18	0.079034984
146	0x3ded81ea	0.11597045
147	0x3c1e9e00	0.009681225
148	0xbda706f5	-0.08155624
149	0x3da917b3	0.082564734
150	0xbcb5c094	-0.022186555
151	0xbcd67ea3	-0.026183432
152	0xbc301ae4	-0.010748599
153	0xbdad63b1	-0.0846628
154	0x3ba6c28d	0.00508911
155	0xbdae2bd5	-0.08504454
156	0xbca9f77a	-0.020747889
157	0x3c8c0bed	0.01709553
158	0xbdb655a1	-0.08903051
159	0x3cb9741d	0.022638375
160	0xbdf51432	-0.119667426
161	0xbdb3259e	-0.08747409
162	0xbda30800	-0.0796051
163	0xbdf7a232	-0.12091483
164	0xbda8f3b5	-0.082496084
165	0x3d14b060	0.036301017
166	0xbd343986	-0.04400017
167	0x3d911937	0.070848875
168	0xbd8921b7	-0.06695884
169	0xbd837ee2	-0.06420685
170	0xbdefb0ff	-0.11703681
171	0xbcafcfdd	-0.021461422
172	0x3d360cbd	0.044445742
173	0xbe0b2c92	-0.13591221
174	0xbd9e31cf	-0.07724344
175	0xbd61f903	-0.055169117
176	0xbd154dbf	-0.036451098
177	0x3ceeb507	0.029139055
178	0xbdf312a1	-0.118687876
179	0x3e027c63	0.12742762
180	0x3df70b0e	0.120626554
181	0x3ddb288f	0.10701095
182	0xbd95d206	-0.073154494
183	0x3cbcbfb3	0.023040628
184	0xbd0afe3c	-0.033933863
185	0x3d945fac	0.072448105
186	0x3e00265f	0.12514637
187	0xbd80cb5b	-0.06288787
188	0xbd73ac55	-0.05949052
189	0xbdebe1a9	-0.11517651
190	0x3db9ba08	0.09068686
191	0x3cc63005	0.02419282
192	0x3d863f30	0.06555021
193	0xbda6f492	-0.08152117
194	0xbd37bc77	-0.04485747
195	0xbde9f80c	-0.11424264
196	0x3d88822b	0.066654526
197	0xbdda4461	-0.106575735
198	0xbcd50646	-0.026003968
199	0x3dac3ca6	0.08410005
200	0xbddc2ba2	-0.1075051
201	0x3d9eed1c	0.07760069
202	0xba44c328	-0.0007505887
203	0x3e21e65b	0.1581053
204	0x3d857c71	0.06517876
205	0x3d0c0662	0.034185775
206	0x3d53c507	0.05170157
207	0x3dc7d4d6	0.09757392
208	0xbd28513c	-0.041093096
209	0xbdf59195	-0.11990658
210	0xbd18c16e	-0.037293844
211	0xbe276d51	-0.16350295
212	0xbcf8534a	-0.030313153
213	0x3d91bb6d	0.07115827
214	0xbd99bef8	-0.075071275
215	0x3d05e9b7	0.03269359
216	0x3d86e069	0.065857716
217	0xbcb66556	-0.022265118
218	0xbcf0e4ef	-0.029406039
219	0xbd995924	-0.07487705
220	0xbd3d5166	-0.046220206
221	0x3d04ae72	0.032392927
222	0xbe074038	-0.13208091
223	0xbd38d4f1	-0.04512495
224	0x3dbb1094	0.091340214
225	0xbde61182	-0.11233808
226	0xbd32f3d8	-0.04368958
227	0xbc897f9b	-0.01678448
228	0xbd951075	-0.072785296
229	0x3dff792d	0.12474284
230	0xbdcd6fe8	-0.1003111
231	0xbe0244aa	-0.12721506
232	0x3d9145ea	0.07093413
233	0xbcc4c455	-0.0240194
234	0x3cadfd81	0.021239044
235	0xbdc2d375	-0.095129885
236	0xbcdfb48c	-0.027307771
237	0xbe035970	-0.12827086
238	0x3d80ee21	0.062954195
239	0x3d357239	0.044298384
240	0xbe03f3e9	-0.12886013
241	0x3dc8d3e7	0.09806042
242	0x3d9cd024	0.07656887
243	0x3dc23331	0.0948242
244	0xbd0e7345	-0.0347779
245	0xbcf95aec	-0.030438863
246	0xbcc78525	-0.02435548
247	0x3dd7b4fd	0.10532568
248	0x3dc07831	0.09397925
249	0xbcbb240d	-0.022844339
250	0xbdfef1de	-0.12448476
251	0xbcf32899	-0.029682444
252	0x3d9f8809	0.077896185
253	0x3dddd013	0.10830703
254	0xbd24ebd4	-0.040263966
255	0x3bb00984	0.005372228

gru1.weight_hh_l0 f4 [192, 64]
0	0xbdcbe8e7	-0.09956532
1	0xbdde9177	-0.10867589
2	0xbcc4b13e	-0.024010297
3	0xbd00ec7d	-0.031475533
4	0xbdfae2b6	-0.12250273
5	0x3da30343	0.079596065
6	0x3db1f08e	0.0868846
7	0xbdcef79c	-0.101058215
8	0xbb1af88c	-0.002364668
9	0xbb7301f9	-0.0037080033
10	0xbcce5c65	-0.025190542
11	0xbd903e17	-0.07043093
12	0x3d3e20e2	0.04641808
13	0xbdc8412a	-0.09778054
14	0xbd93c7bf	-0.07215833
15	0xbb4908e5	-0.0030675468
16	0xbd0eb9cc	-0.03484516
17	0xbdcb1140	-0.099153996
18	0x3de9b2a1	0.11411024
19	0x3b58e395	0.0033094634
20	0xbdae8508	-0.085214674
21	0x3dc7c0f0	0.09753597
22	0xbde36941	-0.1110406
23	0x3dd36a3b	0.10322996
24	0x3be3ac8c	0.0069480594
25	0x3d232c0c	0.03983693
26	0x3d335510	0.043782294
27	0xbc84d1c9	-0.016213315
28	0xbe020f7c	-0.1270122
29	0xbd9ac1de	-0.075565085
30	0x3db0cffe	0.08633421
31	0xbdd01f0b	-0.10162171
32	0x3d855b13	0.06511512
33	0xbde254e2	-0.11051346
34	0x3db12948	0.08650452
35	0xbd825378	-0.06363577
36	0xbc79aa0a	-0.015238294
37	0x3ce5e7ed	0.028064692
38	0x3cdf80d3	0.027283108
39	0x3d8a7606	0.067607924
40	0xbcc43115	-0.023949185
41	0xbd900c3b	-0.07033583
42	0xbd93111b	-0.07180997
43	0xbde9a6a5	-0.11408738
44	0x3bc0ecde	0.005887612
45	0x3cc36397	0.0238512
46	0x3d7b493d	0.061349142
47	0x3c9af5e1	0.018916072
48	0x3dd53986	0.10411362
49	0x3df6f547	0.12058502
50	0x3d03b96f	0.032159265
51	0xbddffbdb	-0.109367095
52	0xbda813b9	-0.08206887
53	0x3dc10e52	0.094265595
54	0xbdeb5e72	-0.114926234
55	0x3d452a76	0.048136197
56	0xbd137bc9	-0.036006723
57	0x3da5c1ac	0.080935806
58	0x3d8e5081	0.06948949
59	0xbca0c15d	-0.019623453
60	0x3d765ea0	0.060148835
61	0xbdc85d7e	-0.09783457
62	0x3dfb8c0a	0.1228257
63	0x3ce70a52	0.028203163
64	0x3bfd4827	0.0077295485
65	0x3de1d7b1	0.11027468
66	0x3cfc45d2	0.030795012
67	0xbc881569	-0.016611772
68	0x3dd882c3	0.10571816
69	0x3c623977	0.013807646
70	0x3d766f58	0.06016478
71	0x3dbf5953	0.09343209
72	0x3db8f762	0.090315595
73	0xbd014b96	-0.031566225
74	0x3dfb6ebc	0.1227698
75	0x3cc42920	0.023945391
76	0x3d77155e	0.06032311
77	0xbbd3a92b	-0.0064593754
78	0xbdb99e05	-0.09063343
79	0x3dab5eec	0.08367714
80	0xbc940892	-0.018070493
81	0x3d0f484e	0.034981064
82	0x3cfb364f	0.030665545
83	0x3dc1dea2	0.09466292
84	0xbdd18e45	-0.10232214
85	0xbdbc0bb6	-0.09181921
86	0xbd6e40c5	-0.058167238
87	0xbcec38fa	-0.028835762
88	0xbdbabfc4	-0.09118608
89	0xbd00a333	-0.03140564
90	0xbd1748e6	-0.036934756
91	0x3db95d9c	0.09051058
92	0x3dd00a2e	0.101581916
93	0xbda584b6	-0.08081953
94	0xbdf5bc8b	-0.11998852
95	0x3cd9257d	0.026507134
96	0xbda1d783	-0.07902434
97	0x3d018fae	0.031631164
98	0x3ca9d55b	0.020731619
99	0x3daca690	0.08430207
100	0x3d644b80	0.055736065
101	0xbc5ad6f2	-0.013356911
102	0x3cc79b40	0.024366021
103	0x3a5892d4	0.0008261625
104	0x3b48eedf	0.0030659956
105	0xbd509bf7	-0.05092999
106	0xbdea6411	-0.114448674
107	0x3cecf419	0.028924989
108	0x3dac9fae	0.08428894
109	0xbd030e61	-0.031996135
110	0x3aec5e9a	0.0018033565
111	0xbd9ec067	-0.077515416
112	0xbc486dd8	-0.01223322
113	0xbd123f4a	-0.03570489
114	0x3d35de6f	0.044401582
115	0xbd136689	-0.035986457
116	0x3db96172	0.09051789
117	0x3dde4c6e	0.108544216
118	0x3d97aa97	0.07405584
119	0x3dfa719f	0.12228703
120	0xbdc8ca97	-0.09804266
121	0x3d88f692	0.066876546
122	0x3cfe3f40	0.03103602
123	0x3bc7b7c8	0.0060949065
124	0x3c792638	0.015206866
125	0x3de3cd42	0.11123134
126	0x3d7f9579	0.062398408
127	0x3d17d9db	0.037072998
128	0x3dbac709	0.09119994
129	0xbbc34014	-0.0059585664
130	0xbd866aea	-0.06563361
131	0x3d86f57e	0.06589793
132	0x3ce652b5	0.02811561
133	0x3e119825	0.14218195
134	0xbb896da8	-0.0041939802
135	0x3d0bb2f3	0.034106206
136	0x3e17cd7d	0.14824481
137	0xbdc0f028	-0.09420806
138	0x3de68a16	0.112568066
139	0xbb6bfc60	-0.0036008582
140	0x3d93982d	0.072067596
141	0x3c92fbea	0.017942388
142	0xbde74890	-0.11293137
143	0x3dc215b8	0.09476799
144	0x3d377be5	0.04479589
145	0xbe061ee4	-0.13097721
146	0xbdd8371b	-0.105573855
147	0x3c886ae5	0.016652534
148	0xbdd439d7	-0.103625946
149	0x3e04353b	0.12910931
150	0xbd725cd7	-0.05917057
151	0x3da20db7	0.07912772
152	0xbdef227a	-0.11676498
153	0x3db0c6b3	0.08631649
154	0x3ded3340	0.11582041
155	0x3dcb66c4	0.0993171
156	0xbb5d3895	-0.003375565
157	0x3d953adf	0.072866194
158	0x3bcdaa6e	0.0062764203
159	0x3d728c80	0.059216022
160	0x3dc6e121	0.09710909
161	0xbda0d04a	-0.07852228
162	0x3d8724d2	0.0659882
163	0xbd88b81d	-0.06675742
164	0xbdf86eff	-0.12130546
165	0x3d37ead4	0.044901684
166	0xbd6eb153	-0.05827458
167	0x3d282fa8	0.041061074
168	0x3d06d0e8	0.032914072
169	0x3d502efd	0.05082606
170	0x3da9544d	0.08268032
171	0x3d78b253	0.06071694
172	0xbda4cc17	-0.080467395
173	0xbdf7ff46	-0.121092364
174	0x3d9694ba	0.07352586
175	0xbbe1c37f	-0.00688976
176	0x3d8773b7	0.06613868
177	0x3defd680	0.117108345
178	0xbd953909	-0.07286269
179	0x3d049791	0.032371107
180	0xbce5a42d	-0.028032387
181	0xbd23a056	-0.03994783
182	0x3d03fe85	0.03222515
183	0xbe00e8b8	-0.12588775
184	0x3a914c0a	0.0011085283
185	0x3b0278b1	0.0019908363
186	0x3d8f78a4	0.07005432
187	0xbd975f7a	-0.073912576
188	0x3cc2f0b2	0.023796413
189	0xbc4b8ef0	-0.012424216
190	0xbd112551	-0.03543598
191	0xbce0db34	-0.027448274
192	0x3d8342ac	0.06409201
193	0x3db3f1eb	0.087863766
194	0xbd5106b8	-0.051031798
195	0x3d6ba346	0.057528757
196	0x3d97b1e4	0.07406977
197	0x3dc7723b	0.097385846
198	0xbc61e550	-0.0137875825
199	0xbd6a72e0	-0.05723846
200	0xbccb0b36	-0.02478562
201	0xbdcf325c	-0.10117027
202	0x3d533a02	0.051568992
203	0x3cb52b5e	0.022115406
204	0xbcb1f563	-0.021723455
205	0x3dbaa5c2	0.09113647
206	0xbdbf865a	-0.093517974
207	0xbd5944a6	-0.053043984
208	0xbe194b80	-0.14970207
209	0xbcebe7cf	-0.028797058
210	0xbd86d1b0	-0.065829635
211	0x3d495c13	0.049160074
212	0xbcbddc72	-0.023176406
213	0xbc4d9844	-0.01254851
214	0x3dc5e3be	0.09662579
215	0x3e019a0d	0.12656422
216	0xbdda7d85	-0.10668472
217	0xbdd50087	-0.10400491
218	0xbdd8b03c	-0.10580489
219	0xbdd68c98	-0.10476035
220	0x3dced9f4	0.10100165
221	0xbd83a0d0	-0.06427157
222	0x3dced950	0.10100043
223	0x3dcc343a	0.09970899
224	0x3d6e0c15	0.05811699
225	0xbaecc78a	-0.0018064838
226	0xbdc66e80	-0.09689045
227	0x3dc7184e	0.097214326
228	0x3d9118df	0.07084822
229	0xbe04d666	-0.12972412
230	0xbd9d3c7e	-0.076775536
231	0x3dc0cab5	0.09413663
232	0xbcb69c01	-0.022291185
233	0x3d9f29f7	0.07771676
234	0xbc823d1e	-0.015898284
235	0xbd82a3cd	-0.06378899
236	0x3c67c69a	0.014146471
237	0x3d14f608	0.036367446
238	0x3d3ecd07	0.046582248
239	0xbdc47b60	-0.095938444
240	0x3bccd7df	0.00625132
241	0xbc8153d1	-0.015787037
242	0x3dd3d333	0.103430174
243	0xbc1ff5e4	-0.009763215
244	0xbcd05913	-0.025433099
245	0xbc1ce364	-0.0095756985
246	0xbb35ac90	-0.0027721263
247	0xbdb6b18a	-0.08920582
248	0x3b452c93	0.0030086383
249	0xbdd71a44	-0.10503057
250	0xbd1957bc	-0.037437186
251	0xbdccc418	-0.099983394
252	0x3dbe3817	0.09288042
253	0xbddcf0c3	-0.10788109
254	0xbc939abd	-0.01801812
255	0xbdc4e397	-0.09613722

gru1.bias_ih_l0 f4 [192]
0	0x3d8a1302	0.06741907
1	0x3df6a988	0.12044054
2	0x3d93d5a6	0.072184846
3	0xbc594f4e	-0.013263537
4	0x3b04398a	0.0020175898
5	0x3c5ee3a7	0.013604081
6	0xbde26c26	-0.11055784
7	0x3e090b00	0.13383102
8	0x3cbc2e0f	0.022971181
9	0xbdadbfe7	-0.08483868
10	0x3c13a8ee	0.009012444
11	0xbd96a01e	-0.07354759
12	0x3de43386	0.1114264
13	0xbd580fa6	-0.0527493
14	0x3e07bcb5	0.1325558
15	0x3cd18c4c	0.025579594
16	0x3d778bd6	0.060436092
17	0x3de3fb0e	0.11131869
18	0x3cecde08	0.028914467
19	0xbdae1b5e	-0.085013136
20	0xbd4f5620	-0.050619245
21	0x3de5f1c0	0.11227751
22	0xbd04b7ce	-0.032401852
23	0x3d6ab12a	0.057297863
24	0xbdc2f6d4	-0.09519735
25	0x3c98fd6e	0.018675532
26	0xbdd8e436	-0.10590403
27	0x3dcc5362	0.099768415
28	0xbd969a7e	-0.07353686
29	0xbc38c53d	-0.011277494
30	0xbb9f7f81	-0.0048674946
31	0xbb94bc5e	-0.0045390567
32	0x3d873d2c	0.066034645
33	0xbdd8cdd1	-0.10586131
34	0xbdd04bba	-0.10170694
35	0x3d9a2143	0.075258754
36	0x3db15feb	0.08660873
37	0xbd191934	-0.03737755
38	0x3d4268e2	0.047463305
39	0x3e0b6541	0.13612844
40	0x3bb4665d	0.0055053667
41	0xbd4b335c	-0.049609527
42	0xbd1f652c	-0.038914844
43	0xbd54d96c	-0.051965162
44	0xbd6adf77	-0.05734202
45	0x3cf82047	0.030288829
46	0x3dd90ce1	0.105981596
47	0x3d43f3e8	0.04784003
48	0x3df1fdc1	0.11815978
49	0xbd1a848b	-0.03772406
50	0x3dee8648	0.11646706
51	0x3c90b02e	0.017662134
52	0xbabe6e53	-0.0014528729
53	0x3dc3db5a	0.09563322
54	0xbd29e75a	-0.0414804
55	0xbc385ca9	-0.011252561
56	0xbc196dad	-0.009364528
57	0xbe01b199	-0.12665404
58	0xbc2d6b38	-0.010584645
59	0xbd1b6071	-0.03793377
60	0x3dbe64fa	0.092966035
61	0x3d8d8db8	0.06911796
62	0xbd87065a	-0.06593008
63	0xbdd77b01	-0.10521508
64	0xbd578521	-0.052617196
65	0x3d2a5c3e	0.041591875
66	0x3dcc41dc	0.09973499
67	0x3d05472e	0.032538585
68	0x3d9f5758	0.077803314
69	0x3daead87	0.085291915
70	0x3d3135eb	0.04326431
71	0x3e0854b6	0.13313565
72	0x3c91bafc	0.017789356
73	0x3cec69c7	0.028859032
74	0x3de18bb9	0.11012978
75	0x3e10c7bb	0.14138691
76	0x3e186061	0.14880516
77	0xbd66b2b0	-0.056322753
78	0xbd2e58a8	-0.042565018
79	0x3d011f46	0.031523965
80	0xbdb52533	-0.08844986
81	0x3de16792	0.110060826
82	0x3da7e66e	0.08198248
83	0x3ce5d115	0.0280538
84	0x3d8e7a5e	0.069569334
85	0x3d99c4aa	0.07508214
86	0xbdf30442	-0.118660465
87	0xbc4edae6	-0.012625432
88	0x3be006a7	0.0068367305
89	0x3ac07e83	0.0014686141
90	0x3e0d2724	0.13784462
91	0x3e23463b	0.1594476
92	0x3e16e215	0.14734681
93	0x3d213fff	0.039367672
94	0xbce346a6	-0.027743649
95	0xb8e5de11	-0.00010960934
96	0x3d16ed40	0.036847353
97	0xbcfc8c1f	-0.030828534
98	0x3cddaa3a	0.02705871
99	0xbcc36713	-0.02385286
100	0x3cc16c22	0.023611132
101	0xbc5ec1eb	-0.013596038
102	0x3cb7ef1f	0.022452889
103	0x3d55d889	0.052208457
104	0xbd725127	-0.059159424
105	0x3d82d272	0.063877955
106	0x3df9c93c	0.121965855
107	0xbdb7b61b	-0.08970281
108	0x3d23c483	0.03998233
109	0x3e0657b9	0.13119401
110	0x3da0d3b8	0.07852882
111	0xbd47ed6a	-0.0488104
112	0x3e0b15e7	0.13582574
113	0x3d44493d	0.047921408
114	0x3e11f096	0.14251933
115	0x3dee15a7	0.116252236
116	0xbd92c9b3	-0.07167377
117	0xbd5809ac	-0.0527436
118	0xbd0efe20	-0.03491032
119	0x3cb168ee	0.02165648
120	0xbd436d1d	-0.04771148
121	0x3ca38b9d	0.019964034
122	0xbc9db873	-0.019252991
123	0x3d8faea4	0.07015732
124	0x3c20544b	0.009785722
125	0xbb03678b	-0.002005073
126	0x3b429906	0.002969326
127	0xbd8ffb99	-0.0703041
128	0x3d23d2a7	0.039995816
129	0x3dad5ea9	0.084653206
130	0x3e03017a	0.12793532
131	0x3d776e8b	0.060408156
132	0x3dc93d3c	0.09826133
133	0x3d941cd0	0.07232058
134	0xbdaf5e34	-0.0856289
135	0xbe1a554b	-0.15071599
136	0xbc997044	-0.01873029
137	0xbd6f08ce	-0.058358006
138	0xbc604b96	-0.013689896
139	0xbd08e432	-0.03342075
140	0x3ddba980	0.10725689
141	0xbcf379f3	-0.029721236
142	0xbd16ab97	-0.036784735
143	0x3d65ebda	0.05613313
144	0x3dca2086	0.098694846
145	0x3dc014fc	0.093790025
146	0x3d83f096	0.064423725
147	0x3db9f6b3	0.09080257
148	0xbdd04822	-0.10170008
149	0x3d8f6a49	0.07002694
150	0x3d39097e	0.045175068
151	0x3dc318f0	0.09526241
152	0xbd91ecf9	-0.07125277
153	0x3d9dcfa2	0.077056184
154	0xbc475478	-0.012166135
155	0xbdc46ceb	-0.09591087
156	0xbc8d123d	-0.01722061
157	0x3d36abe2	0.044597514
158	0xbc4559a3	-0.012045297
159	0x3de7cc58	0.11318272
160	0x3dae0356	0.0849673
161	0xbd2d67cd	-0.04233532
162	0xbdc93595	-0.09824673
163	0xbdf4fab3	-0.119618796
164	0xbd0c3a34	-0.034235194
165	0xbc33a551	-0.0109647075
166	0x3de78f6d	0.11306653
167	0xbd40ad0f	-0.04704004
168	0xbdbf6e86	-0.093472525
169	0xbcd051ec	-0.025429688
170	0x3cd31487	0.025766624
171	0xbd95b916	-0.07310693
172	0xbdd99726	-0.106245324
173	0xbca03f92	-0.019561563
174	0x3d66baaf	0.05633038
175	0xbd7f68a2	-0.062355645
176	0x3d53f14c	0.05174379
177	0x3dc638be	0.096787915
178	0xbc333398	-0.010937594
179	0x3cf96240	0.030442357
180	0xbde64c58	-0.1124503
181	0x3dcb80d8	0.09936684
182	0xbd31aeb4	-0.0433795
183	0x3ca85761	0.020549478
184	0x3dca6360	0.098822355
185	0xbcdcc69d	-0.026950175
186	0xba603f5d	-0.0008554364
187	0x3dd06b76	0.101767465
188	0x3bda31b6	0.006658758
189	0xbd1e3b39	-0.038630698
190	0x3c468b82	0.012118222
191	0xbcfbd9fb	-0.03074359

gru1.bias_hh_l0 f4 [192]
0	0x3ca969ec	0.02068039
1	0xbdbe9cf6	-0.09307282
2	0xbb8213a5	-0.003969627
3	0xbd25921a	-0.040422536
4	0x3d51f519	0.051259134
5	0xbe06813a	-0.13135234
6	0x3d2fa07f	0.04287767
7	0xbdb2c414	-0.08728805
8	0xbda6e5b8	-0.08149284
9	0xbbe4595d	-0.0069686607
10	0x3d49b174	0.049241498
11	0x3da58064	0.08081129
12	0x3dc2053e	0.09473656
13	0xbe0641e0	-0.13111067
14	0xbc287533	-0.010281849
15	0xbd86eafd	-0.06587789
16	0x3d8625ea	0.065502
17	0xbd1394e5	-0.03603067
18	0x3d965b97	0.07341688
19	0x3de7c390	0.113165975
20	0xbd74ccb0	-0.059765518
21	0xbc63eb35	-0.013911058
22	0x3e362fea	0.17791715
23	0x3dd6a413	0.104805134
24	0x3ceaf889	0.028682964
25	0xbe0128da	-0.1261324
26	0x3da22dd6	0.07918899
27	0x3d2da2a1	0.042391423
28	0xbdbb6727	-0.09150534
29	0xbdbda291	-0.09259523
30	0x3d70a1e7	0.058748152
31	0xbb1348a1	-0.002247371
32	0xbb5b8f9e	-0.003350235
33	0x3d621aee	0.055201463
34	0xbdcc155e	-0.09965013
35	0xbdf74f9d	-0.12075732
36	0x3d4ffb31	0.050776664
37	0x3de381aa	0.11108716
38	0x3c9c63c0	0.019090533
39	0xbdc93b7b	-0.09825798
40	0x3cb364b2	0.021898601
41	0x3d08169c	0.033224687
42	0xbd05d259	-0.032671306
43	0xbc2afa48	-0.010435648
44	0xbcdaf091	-0.02672604
45	0x3c180257	0.009277902
46	0x3d81432c	0.0631164
47	0x3dcb790f	0.099351995
48	0xbb16d797	-0.0023016685
49	0xbdd26b59	-0.10274381
50	0x3e36cd80	0.1785183
51	0x3da4126b	0.080113254
52	0xbd3c61cc	-0.045991704
53	0xbcdd25a5	-0.02699549
54	0x3d04943e	0.032367937
55	0xbd9bb7a2	-0.076033846
56	0x3ab38d60	0.0013698749
57	0xbdcfdd65	-0.101496495
58	0xbda60041	-0.08105517
59	0x3d036ed7	0.032088127
60	0x3da2f3a2	0.079566255
61	0xbd8b9060	-0.06814647
62	0x3dac1d5a	0.08404036
63	0x3d70689c	0.058693513
64	0xbca9cc9c	-0.020727448
65	0x3dcb45e1	0.09925438
66	0x3d25e4d2	0.040501423
67	0xbda6c1c9	-0.0814243
68	0x3d2dab3b	0.042399626
69	0xbdae6b0e	-0.08516513
70	0xbd73cce9	-0.05952159
71	0x3ddac299	0.10681648
72	0xbd03a055	-0.032135326
73	0xbcae5e7f	-0.021285294
74	0x3e36d468	0.17854464
75	0x3e001e37	0.12511526
76	0xbd825a8c	-0.06364927
77	0x3df8b591	0.12144006
78	0x3d818ef2	0.06326093
79	0x3df81463	0.121132635
80	0x3debe6e9	0.11518652
81	0x3d501f12	0.05081088
82	0x3dfe6920	0.12422395
83	0xbce677ed	-0.028133357
84	0xbda712b2	-0.08157863
85	0x3dc0fb3f	0.094229214
86	0xbdffa4fd	-0.12482641
87	0x3d442d99	0.047895048
88	0xbd06fef0	-0.03295797
89	0x3dbfa7bd	0.093581654
90	0x3e010b1f	0.12601899
91	0x3e3b61a5	0.18298967
92	0x3e05f80f	0.13082908
93	0x3daa3ecf	0.08312761
94	0xbd1ff98b	-0.039056342
95	0x3dbb01ac	0.09131178
96	0x3c9267ac	0.0178717
97	0x3df1dd48	0.11809784
98	0xbd8d5f7a	-0.06902976
99	0xbd94bf6d	-0.07263074
100	0x3e19d467	0.15022431
101	0xbd721579	-0.05910251
102	0xbd2a7dc4	-0.041623846
103	0x3d27d866	0.040977858
104	0xbd4a486b	-0.04938547
105	0xbd0950e5	-0.033524413
106	0xbdbb5334	-0.09146729
107	0xbd888cbd	-0.06667469
108	0x3de49b27	0.111624055
109	0xbd96e5d2	-0.073680535
110	0x3de83a80	0.11339283
111	0x3d92c27a	0.07166
112	0x3c7a2f28	0.015270032
113	0x3d90e5ee	0.070751056
114	0xbcdc34be	-0.026880618
115	0xbd724f8f	-0.059157904
116	0x3e12e216	0.14344057
117	0x3c1272e1	0.008938522
118	0x3da1dc40	0.079033375
119	0x3e221673	0.15828876
120	0x3c8a59df	0.016888557
121	0x3e031a8b	0.12803094
122	0x3e07806b	0.13232581
123	0x3d0cb870	0.03435558
124	0x3e0755c1	0.13216306
125	0x3e05cad8	0.1306566
126	0x3e1e57d2	0.15463188
127	0xbd5aac71	-0.05338711
128	0xbc796594	-0.015221972
129	0xbdf39cf1	-0.118951686
130	0x3dc75aec	0.09734139
131	0xbd5ddcd5	-0.05416568
132	0x3daf76bd	0.085675694
133	0xbd83d22b	-0.06436571
134	0xbd8ebf8d	-0.06970129
135	0x3d8bb496	0.068215534
136	0x3e03fcee	0.12889454
137	0x3d231351	0.039813343
138	0x3dfb1487	0.12259775
139	0xbe04a946	-0.12955198
140	0x3deedaa8	0.11662799
141	0x3cb8be0e	0.022551563
142	0x3d1d0758	0.03833708
143	0xbd9972ef	-0.07492625
144	0x3d2b9242	0.04188753
145	0xbe1871a4	-0.148871
146	0xbb87507e	-0.0041294685
147	0xbdee5883	-0.11637976
148	0x3b4ef4fe	0.0031579132
149	0x3d85fdb9	0.065425344
150	0xbdd60f6e	-0.10452162
151	0xbcd9e8c8	-0.026600257
152	0x3d1222eb	0.03567783
153	0xbd4c3e9d	-0.0498644
154	0xbd8efc50	-0.069817185
155	0xbdc9479d	-0.09828112
156	0x3b973860	0.0046148747
157	0xbdc25961	-0.09489704
158	0xbcf02d9e	-0.029318627
159	0x3d95002a	0.07275422
160	0xbd8bddd4	-0.0682942
161	0xbca7ef7d	-0.02049994
162	0x3d8e92a1	0.06961561
163	0x3d6be967	0.057595637
164	0x3b22d58f	0.002484653
165	0x3d741669	0.059591684
166	0x3d75c092	0.059998102
167	0x3d0f6211	0.035005633
168	0xbd8489d1	-0.06471599
169	0x3c57d1c3	0.01317257
170	0xbde62c38	-0.11238903
171	0xbce27734	-0.027644731
172	0xbddd0be7	-0.10793286
173	0x378de7f5	1.6916523e-05
174	0x3cc8fbd5	0.024534145
175	0x3df8eb4c	0.12154254
176	0x3d43a9dd	0.047769416
177	0xbc82c7ba	-0.015964378
178	0xbb564593	-0.0032695278
179	0x3ae3b5b6	0.001737288
180	0x3c973998	0.01846008
181	0xbde63e2e	-0.112423286
182	0xbd9bd1d2	-0.076083794
183	0x3e08f894	0.13376075
184	0xbd9d7393	-0.0768806
185	0xbdc7f609	-0.09763724
186	0xbd58c277	-0.05291983
187	0x3bca1ac0	0.0061677396
188	0x3c919802	0.017772678
189	0x3dc4180d	0.095749
190	0xbce6b413	-0.028162038
191	0x3d99c3cc	0.075080484

gru2.weight_ih_l0 f4 [96, 64]
0	0xbdde2ff4	-0.1084899
1	0x3e4f9b46	0.20274076
2	0xbda1b0ff	-0.078950875
3	0xbdbaf7dd	-0.091293074
4	0x3e19fa86	0.15036973
5	0xbd6dca9a	-0.058054544
6	0xbcce909d	-0.025215441
7	0xbe19c35f	-0.15015934
8	0xbe0b35cc	-0.1359474
9	0xbe1980f4	-0.14990598
10	0xbde782bd	-0.11304233
11	0xbd5da925	-0.054116387
12	0x3d91765b	0.07102653
13	0xbe17f2a6	-0.14838657
14	0xbb524c8e	-0.0032089087
15	0x3d87436b	0.06604656
16	0xbe396d42	-0.18108085
17	0xbcf9f26a	-0.0305111
18	0x3db31044	0.08743337
19	0x3d4c27e9	0.04984275
20	0x3d95c646	0.07313208
21	0x3da8932d	0.082311966
22	0x3e095fd3	0.1341546
23	0x3d0fa47f	0.035068985
24	0x3db5c967	0.08876305
25	0xbe2b25ba	-0.1671361
26	0x3e017fde	0.12646434
27	0x3d4cb0c9	0.049973283
28	0x3de8f5d3	0.11375012
29	0xbd73e629	-0.05954567
30	0xbd0bef8d	-0.034164
31	0x3d1830b7	0.037155833
32	0x3d8c6f45	0.068571605
33	0x3d25f46d	0.040516306
34	0x3d6cf591	0.057851378
35	0xbd2263bb	-0.03964589
36	0x3b371617	0.002793675
37	0x3d4fe3a7	0.050754216
38	0xbd531785	-0.0515361
39	0xbd2e4dcb	-0.042554658
40	0x3ded979d	0.116011836
41	0x3cb058b6	0.021526676
42	0xbd5d17c1	-0.05397773
43	0x3b8f7c73	0.004378849
44	0x3e18e5b0	0.14931369
45	0xbd2ac104	-0.04168798
46	0xbe06e6fc	-0.13174051
47	0xbb8b9184	-0.00425929
48	0xbd2d545a	-0.042316772
49	0x3c61bb0e	0.0137775075
50	0x3e01deda	0.12682667
51	0x3dccf496	0.100075886
52	0x3da81501	0.08207131
53	0x3e09c425	0.1345373
54	0x3dba20cb	0.09088286
55	0xbce72c4d	-0.028219366
56	0xbd972a1f	-0.07381081
57	0xbcff6db7	-0.031180246
58	0xbcedd17d	-0.029030556
59	0x3cecf07d	0.028923267
60	0xbd7bbe81	-0.061460976
61	0x3dbcb0bf	0.09213399
62	0x3e11ea82	0.14249614
63	0x3e22f568	0.15913928
64	0x3dfd7ceb	0.12377342
65	0x3dc2718d	0.09494314
66	0x3d95c9a7	0.07313853
67	0x3e08774a	0.13326755
68	0x3e016084	0.12634474
69	0x3cd4bc7b	0.02596878
70	0xbd31e3e0	-0.04343021
71	0x3dd4b38f	0.103858106
72	0xbe22a1ae	-0.15881988
73	0x3dfeea9f	0.12447094
74	0x3d96bb95	0.07359997
75	0x3c0942c0	0.008377731
76	0xbdd789be	-0.10524319
77	0xbe3d7b85	-0.1850415
78	0xbe0d5457	-0.13801704
79	0xbd282cd5	-0.04105838
80	0xbcefc4ad	-0.029268587
81	0x3de6f841	0.112778194
82	0xbd572718	-0.052527517
83	0x3cbb2f3e	0.022849675
84	0xbdfa5bb7	-0.122245245
85	0x3c9f1b2b	0.019422134
86	0x3d93827f	0.072026245
87	0x3d25a68a	0.040442027
88	0xbd3c67f1	-0.045997564
89	0xbd49d054	-0.049270943
90	0xbd3111aa	-0.043229736
91	0x3d3693d7	0.044574585
92	0x3e62e3f0	0.22157264
93	0xbe0b99dd	-0.13632913
94	0xbe187c6b	-0.14891212
95	0xbd05365c	-0.032522544
96	0x3de67945	0.11253599
97	0x3c75da39	0.015005642
98	0x3e173549	0.1476642
99	0xbe16ac5d	-0.14714189
100	0xbe1cdef9	-0.15319432
101	0xbe14af39	-0.14519967
102	0x3e171ea9	0.1475779
103	0x3ad7909e	0.0016446298
104	0x3df2df8f	0.11859047
105	0xbe5fe39a	-0.21864167
106	0x3e044cf5	0.12919982
107	0x3da13e72	0.078732386
108	0x3a525abb	0.0008024384
109	0x3d64b04d	0.055832196
110	0xbde0404f	-0.10949766
111	0x3d07b916	0.033135496
112	0xbd9200ab	-0.07129034
113	0xbe348e41	-0.1763239
114	0x3e11fe84	0.14257246
115	0xbe25aed4	-0.16179973
116	0xbc93bd34	-0.018034555
117	0xbdacbc69	-0.08434374
118	0x3e399877	0.18124567
119	0xbdb3ae34	-0.08773461
120	0x3af15bf5	0.0018414246
121	0xbdf08e4c	-0.11745891
122	0x3dddc897	0.10829275
123	0x3dd7c92f	0.105364196
124	0x3d50c38d	0.05096774
125	0x3df4e1b6	0.119571134
126	0xbb79cf4f	-0.003811795
127	0x3e18c9cb	0.14920728
128	0x3c678474	0.0141307
129	0x3e5194cb	0.20466916
130	0xbcf37259	-0.029717611
131	0x3e238d40	0.15971851
132	0x3d58461d	0.05280124
133	0x3e06d4d2	0.13167122
134	0x3e25e543	0.16200738
135	0xbdd0f1b0	-0.10202348
136	0xbcab6172	-0.020920489
137	0xbe29a7c9	-0.16567911
138	0x3d361538	0.04445383
139	0xbe06e7f8	-0.13174427
140	0xbdab5142	-0.08365108
141	0xbd07e23e	-0.033174746
142	0x3e22c9e7	0.15897332
143	0x3e1e2b63	0.15446238
144	0xbd5031fa	-0.05082891
145	0xbd3742d0	-0.04474145
146	0xbc7b40fc	-0.015335318
147	0xbdf3f7fe	-0.11912535
148	0xbd8a5432	-0.0675434
149	0x3def1c16	0.11675279
150	0xbe038104	-0.12842184
151	0x3e0e9613	0.13924436
152	0x3de0e72c	0.109815925
153	0xbd609dd5	-0.05483802
154	0xbca0399b	-0.019558718
155	0x3e1703e9	0.14747585
156	0xbdbee7ed	-0.0932158
157	0x3d090e95	0.033461172
158	0xbd19c6bb	-0.03754304
159	0x3da73884	0.081650764
160	0xbdb095f2	-0.0862235
161	0x3e69474e	0.22781107
162	0x3db11d41	0.08648158
163	0x3ddb6ba8	0.10713893
164	0x3c0aef19	0.008479857
165	0xbe19058e	-0.14943525
166	0xbc5a7231	-0.013332889
167	0x3dc80d0d	0.09768114
168	0x3dd9b025	0.106293
169	0x3da16a9c	0.07881662
170	0x3d8b2828	0.067947686
171	0xbe1fe0ea	-0.15613142
172	0xbe0dc71d	-0.13845487
173	0x3db7c40d	0.089729406
174	0xbde74a1d	-0.11293433
175	0xbd42e0d0	-0.04757768
176	0x3ded54d8	0.11588448
177	0xbe0f8b3a	-0.14017954
178	0x3e100610	0.14064813
179	0xbbf92d10	-0.007604249
180	0xbdcfe068	-0.10150224
181	0x3e07e394	0.13270408
182	0x3db90097	0.09033316
183	0x3da91f26	0.08257894
184	0x3e2437c3	0.16036896
185	0xbd8dca21	-0.06923319
186	0xbc9484a3	-0.018129652
187	0xbe67644a	-0.22596851
188	0xbd8a4abe	-0.06752537
189	0xbe36f616	-0.17867312
190	0xbe06eb10	-0.13175607
191	0x3e0874a7	0.1332575
192	0x3dac30b3	0.08407726
193	0x3de73b7a	0.11290641
194	0xbdb1ee8c	-0.08688077
195	0xbe29c949	-0.1658069
196	0xbdeeeed9	-0.1166665
197	0xbd000494	-0.031254366
198	0xbdb0e3df	-0.08637213
199	0x3e11595e	0.14194247
200	0x3dbfc4a0	0.09363675
201	0x3d23f7cd	0.040031243
202	0x3db8910d	0.09012041
203	0xbdef548f	-0.1168605
204	0x3d53ae61	0.051679973
205	0x3cd9daf6	0.026593667
206	0xbdf9073f	-0.12159585
207	0x3c993d25	0.018705914
208	0xbe45bf43	-0.19311242
209	0x3d129bc6	0.03579309
210	0x3cc59a63	0.024121469
211	0xbe0f6ae1	-0.14005615
212	0x3daff654	0.08591905
213	0xbd13ab03	-0.03605176
214	0xbd5590ad	-0.052139927
215	0xbe1f6a01	-0.15567781
216	0x3daaa9b0	0.083331466
217	0xbe303b71	-0.17210175
218	0xbdf5536a	-0.119788006
219	0x3b64592b	0.0034843187
220	0x3c456f32	0.012050437
221	0x3dcddd22	0.10051943
222	0xbd55024b	-0.05200414
223	0x3da9251c	0.08259031
224	0xbbfa2b17	-0.0076345312
225	0x3d128e67	0.035780337
226	0x3dacd991	0.08439935
227	0xbcb0ced9	-0.021583008
228	0xbdecdc21	-0.11565424
229	0xbd9c8812	-0.07643141
230	0x3e18e59d	0.1493134
231	0x3c3007cd	0.010744047
232	0x3d50e4f5	0.0509996
233	0xbde2b07c	-0.11068818
234	0xbd75ea08	-0.060037643
235	0xbcd193b1	-0.02558312
236	0xbdc36d7a	-0.09542365
237	0xbe209109	-0.15680327
238	0xbd6f0349	-0.058352742
239	0xbd33649c	-0.04379712
240	0x3dfdf188	0.12399584
241	0x3d0f3d7c	0.034970745
242	0xbdde4e7f	-0.10854816
243	0xbded27a2	-0.11579825
244	0xbd93ff2b	-0.07226404
245	0x3dceca7c	0.100972146
246	0x3d77bccd	0.06048279
247	0xbd058aa6	-0.03260293
248	0x3d53c17c	0.051698193
249	0x3d8c172f	0.068403594
250	0x3e06c3c9	0.13160624
251	0xbc42d961	-0.0118926475
252	0x3db68b73	0.089133166
253	0x3dcaecd2	0.09908451
254	0x3e0621a3	0.13098769
255	0xbd074c18	-0.033031553

gru2.weight_hh_l0 f4 [96, 32]
0	0x3e1954a7	0.14973699
1	0xbd668859	-0.056282375
2	0x3d4f4475	0.050602395
3	0xbd53e32c	-0.05173032
4	0x3dc9ef14	0.09860054
5	0x3c17b52a	0.0092595015
6	0x3dfc9ea1	0.123349436
7	0x3e27e9ca	0.16397777
8	0xbd98241e	-0.07428764
9	0x3d8c959f	0.068644755
10	0x3bcf6517	0.0063291895
11	0x3e1e280a	0.15444961
12	0xbe2ab5f7	-0.16670977
13	0xbd7e1b46	-0.06203773
14	0x3e184848	0.14871323
15	0xbda016fb	-0.07816883
16	0x3c8d7ed8	0.017272398
17	0x3e0766ae	0.13222763
18	0xbc6b704a	-0.0143700335
19	0xbe0ca833	-0.13736038
20	0xbe433214	-0.19062072
21	0xbdc28698	-0.09498328
22	0x3c440f74	0.011966575
23	0x3d917fae	0.07104431
24	0xbda19e7c	-0.078915566
25	0xbe3357a5	-0.17513902
26	0xbd8fc074	-0.070191294
27	0x3e135bec	0.14390534
28	0xbce47972	-0.02788994
29	0x3d2f35e6	0.04277601
30	0xbe1cc70e	-0.15310308
31	0x3e540c6e	0.20707867
32	0x3e153e4b	0.14574544
33	0xbc61742b	-0.013760607
34	0xbc85e49d	-0.016344363
35	0x3c6b3cec	0.014357787
36	0xbde9298a	-0.11384876
37	0x3d3d7802	0.046257026
38	0xbde20fa2	-0.11038138
39	0x3dd74b7e	0.10512446
40	0x3c41298c	0.011789691
41	0xbca568c3	-0.020191556
42	0xbd342463	-0.043980014
43	0x3c87fc58	0.016599819
44	0x3e350d27	0.17680798
45	0x3dad6a5a	0.084675506
46	0x3d9d0b0c	0.07668123
47	0x3cae693b	0.021290412
48	0x3d56c0a7	0.05242982
49	0xbd11c965	-0.035592455
50	0xbe2d0318	-0.16895711
51	0x3e067d4d	0.13133736
52	0xbddb6c4f	-0.107140176
53	0xbde7fdbc	-0.11327693
54	0x3e03c934	0.12869722
55	0x3e14a87f	0.14517401
56	0x3c3c0669	0.011476138
57	0xbd57fc3f	-0.052730795
58	0x3dd3a9ec	0.103351444
59	0xbda6da0e	-0.081470594
60	0x3dd17354	0.10227075
61	0x3c0ce075	0.008598437
62	0x3d6f84fd	0.058476437
63	0x3e2a436f	0.16627286
64	0x3e0ed0ce	0.1394684
65	0xbbcc9f13	-0.006244549
66	0xbe3d1959	-0.184667
67	0x3c00b172	0.007854806
68	0xbcf122ed	-0.0294356
69	0xbc540d73	-0.01294266
70	0xbe5ac8a2	-0.21365598
71	0x3ca99c93	0.020704543
72	0x3e14c88e	0.1452963
73	0x3e0d2b1a	0.13785973
74	0xbe2e8a10	-0.17044854
75	0x3d6aed9f	0.05735552
76	0xbd904885	-0.07045082
77	0xbddc7a86	-0.10765557
78	0x3dfee4cf	0.124459855
79	0xbd7112d0	-0.05885583
80	0x3c5341fb	0.012894149
81	0x3b8b6b78	0.0042547546
82	0x3dde4deb	0.108547054
83	0xbe1ad332	-0.15119627
84	0x3d74e587	0.059789207
85	0xbd07bdd8	-0.033140033
86	0xbb1babfc	-0.0023753634
87	0x3d94f1c2	0.07272674
88	0x3d701182	0.058610447
89	0x3d9bc818	0.07606524
90	0x3dbffbb6	0.09374182
91	0x3bc1ff14	0.0059203003
92	0xbde26b1c	-0.11055586
93	0x3c9d391b	0.01919227
94	0xbe4fb4fc	-0.20283884
95	0x3c390e0e	0.011294855
96	0xbe0fc815	-0.14041169
97	0xbe453e6a	-0.1926209
98	0xbd6b4a4a	-0.057443894
99	0xbe3c1d9a	-0.18370667
100	0x3d93e7cb	0.072219454
101	0xbdfaa446	-0.12238364
102	0xbc096463	-0.00838575
103	0x3e0cf1e4	0.13764149
104	0xbca89e26	-0.020583224
105	0x3db82ea7	0.08993273
106	0x3dd9dea8	0.106381714
107	0xbe0c36b2	-0.1369274
108	0x3bab6c77	0.005231436
109	0x3dd54e05	0.10415272
110	0xba066395	-0.0005126533
111	0x3e1b24e4	0.15150791
112	0xbe257026	-0.16156062
113	0xbd33c68f	-0.043890532
114	0x3c0489da	0.008089507
115	0x3d174776	0.036933385
116	0x3d1b7dfa	0.037961937
117	0xbdb0e6c9	-0.08637769
118	0xbcf7c6c1	-0.03024614
119	0x3da89505	0.08231548
120	0xbd901065	-0.07034377
121	0x3dfe3cc1	0.12413932
122	0x3dbee593	0.093211316
123	0x38bc268e	8.97172e-05
124	0xbd88137f	-0.066443436
125	0xbd6af2da	-0.057360508
126	0xbbe95bee	-0.0071215546
127	0x3e0b9e18	0.13634527
128	0xbda1b5e8	-0.07896024
129	0xbd9e8b07	-0.07741361
130	0xbdb8fcd9	-0.09032602
131	0xbd87e1c1	-0.06634856
132	0x3db3ff2d	0.08788905
133	0x39d7a678	0.00041132024
134	0xbe14bddd	-0.14525552
135	0x3e1de3d6	0.15418944
136	0x3c0f16d3	0.008733469
137	0xbe0ef566	-0.139608
138	0x3d5bd75f	0.05367219
139	0x3e0acc63	0.1355453
140	0xbddd6886	-0.10810952
141	0x3d89f71b	0.06736585
142	0x3d6ba7dc	0.05753313
143	0xbd2d44fb	-0.042302113
144	0x3dd8a078	0.10577482
145	0x3e3ae9fa	0.18253317
146	0x3e167449	0.14692797
147	0x3b99a800	0.0046892166
148	0x3e24db8c	0.16099375
149	0x3daf38a6	0.08555727
150	0xbc86423e	-0.016389009
151	0x3e291d91	0.16515185
152	0xbe17cae0	-0.14823484
153	0xbaef39f1	-0.0018251521
154	0xbd1c94bb	-0.038227778
155	0x3d9807ed	0.07423387
156	0xbe488fce	-0.19586107
157	0x3d3dce0a	0.046339072
158	0x3dada4c8	0.08478695
159	0x3dc9df42	0.09857036
160	0xbca75ac7	-0.020429028
161	0xbde5333c	-0.11191413
162	0xbd69b2d3	-0.057055306
163	0x3dbc433b	0.09192511
164	0xbbeb0092	-0.007171699
165	0x3d6231f1	0.05522341
166	0x3c04106b	0.008060555
167	0xbca5a34e	-0.020219471
168	0x3c73788b	0.014860283
169	0x3df1c994	0.11806026
170	0x3dffeb34	0.12496033
171	0xbcb5f716	-0.022212546
172	0x3dba8b8f	0.0910865
173	0x3de8da63	0.11369779
174	0x3c4f7332	0.012661742
175	0x3e0e4ae0	0.1389575
176	0xbc486cb5	-0.012232949
177	0x3dd007a1	0.10157705
178	0x3d3a0e51	0.04542381
179	0xbcbdb2a8	-0.023156479
180	0xbd987836	-0.074448034
181	0xbdf4f464	-0.11960676
182	0x3db7fb2b	0.08983453
183	0x3c5c302e	0.013439221
184	0x3e02829f	0.1274514
185	0x3deee89f	0.11665463
186	0xba89a702	-0.0010502043
187	0x3e306689	0.17226614
188	0x3dd3ab16	0.103353664
189	0x3e17b763	0.1481605
190	0xbd5175ea	-0.051137842
191	0xbd9a2faf	-0.07528626
192	0x3e0b464e	0.13601038
193	0xbe27a9fc	-0.16373438
194	0xbcd49094	-0.025947846
195	0x3e15f8cd	0.14645691
196	0xbe24a544	-0.16078669
197	0xbde97378	-0.11398977
198	0xbe088f51	-0.13335921
199	0xbd81b299	-0.06332893
200	0xbdb14e31	-0.08657492
201	0x3e06f155	0.13177998
202	0x3d5db923	0.05413164
203	0x3dde94c8	0.108682215
204	0x3e05a2b1	0.13050343
205	0x3c3dc7e8	0.011583306
206	0xbe28a29f	-0.16468285
207	0xbd9925d7	-0.074779205
208	0x3e0da99a	0.13834229
209	0xbdfed429	-0.1244281
210	0xba30e4a6	-0.00067479385
211	0xbdfe77fc	-0.12425229
212	0x3c996792	0.018726144
213	0xbd933d6b	-0.07189449
214	0x3e0c3987	0.1369382
215	0xbd937e93	-0.072018765
216	0xbd781711	-0.060568873
217	0x3e01862e	0.12648842
218	0x3dd31f22	0.103086725
219	0x3e0d5352	0.13801315
220	0xbdd7d6ce	-0.105390176
221	0xbe4a671b	-0.19765894
222	0xbd7aa0c8	-0.06118849
223	0x3e25d164	0.16193157
224	0xbc046605	-0.008080964
225	0xbe19e5d0	-0.15029073
226	0xbe1ae5c5	-0.15126713
227	0x3db73270	0.08945167
228	0x3d04cc97	0.032421675
229	0xbd3f6b27	-0.046733048
230	0x3dda163c	0.10648772
231	0x3e31bd18	0.1735729
232	0xbcb3d281	-0.021950962
233	0xbde9f633	-0.11423912
234	0x3cc13213	0.023583448
235	0xbcf23558	-0.029566452
236	0x3d88d987	0.06682115
237	0x3e112347	0.14173613
238	0x3d4f68f2	0.050637193
239	0x3e20c5fd	0.15700527
240	0xbe0032c9	-0.12519373
241	0xbe089b61	-0.13340522
242	0x3dc44035	0.09582559
243	0xbdbc321b	-0.09189244
244	0xbdf4c8fc	-0.11952397
245	0x3d9b7150	0.07589972
246	0x3caad567	0.020853711
247	0x3da220c0	0.07916403
248	0xbdea31cd	-0.1143528
249	0xbd85c31e	-0.06531356
250	0x3dbf632e	0.09345089
251	0x3d7a5052	0.061111756
252	0x3ce143b0	0.027498096
253	0x3dd113f2	0.102088824
254	0x3c696ad8	0.014246665
255	0x3dbdd33e	0.09268807

gru2.bias_ih_l0 f4 [96]
0	0xbbdf37e5	-0.006812083
1	0xbdc31915	-0.095262684
2	0x3dfd51c1	0.12369109
3	0x3d732084	0.05935718
4	0xbe008182	-0.12549403
5	0xbe1428df	-0.14468716
6	0x3d8f5d78	0.070002496
7	0x3cbbbb51	0.022916468
8	0x3d24016a	0.04004041
9	0x3af3dd31	0.0018605349
10	0x3d043eb6	0.03228637
11	0xbe1686d8	-0.14699876
12	0xbd29e56f	-0.04147857
13	0xbe2939a4	-0.16525894
14	0x3de9a441	0.11408282
15	0xbe32785d	-0.17428727
16	0x3e2ecbc5	0.1706992
17	0x3e13ac50	0.14421201
18	0xbbf9411f	-0.00760664
19	0xbe2ce454	-0.16883975
20	0xbd83d7c2	-0.06437637
21	0xbdac551a	-0.08414669
22	0x3cc9a448	0.024614468
23	0x39dc9a97	0.00042076848
24	0xbe20c9d8	-0.15701997
25	0xbe263180	-0.1622982
26	0x3de95f50	0.113951325
27	0xbd239d6f	-0.039945062
28	0x3db5c85b	0.088761054
29	0xbde40f9a	-0.11135788
30	0x3d8c3d74	0.06847659
31	0xbdf79611	-0.1208917
32	0x3e4ebbd1	0.20188834
33	0x3dff1523	0.124552034
34	0x3e1158d0	0.14194036
35	0xbb3905fc	-0.0028232327
36	0xbcd2753e	-0.025690671
37	0x3e9054e7	0.28189775
38	0x3ea54833	0.32281646
39	0x3de901ad	0.11377273
40	0x3c363a66	0.011122322
41	0x3d508f50	0.050917923
42	0x3e7a8011	0.24462916
43	0xbd832b9b	-0.064048015
44	0x3dac6e4f	0.08419477
45	0xbdb3be59	-0.0877654
46	0x3d99ebb4	0.0751566
47	0xbd464b24	-0.048411503
48	0xbcfa8757	-0.030582113
49	0xbd2796ed	-0.04091542
50	0x3d82ff02	0.06396295
51	0xbd769f84	-0.06021072
52	0x3d677407	0.056507137
53	0xbc6f642f	-0.014611288
54	0x3d0a41fe	0.03375434
55	0x3e4730aa	0.19452158
56	0x3da1a601	0.07892991
57	0x3e2134cb	0.15742795
58	0x3e3568d2	0.17715767
59	0xbb90a645	-0.004414352
60	0x3d01a823	0.03165449
61	0x3e09775b	0.13424437
62	0xbd07705b	-0.033066135
63	0x3e01aa88	0.12662709
64	0x3d150d94	0.036389902
65	0x3cfe0087	0.03100611
66	0x3d877c20	0.06615472
67	0x3e0b1bd5	0.13584836
68	0xbd985c78	-0.07439512
69	0x3e0cf7cb	0.137664
70	0x3d21cb25	0.039500374
71	0x3db4e178	0.08832067
72	0x3dc54392	0.09632029
73	0x3d90e3e9	0.070747204
74	0xbda8e227	-0.0824626
75	0x3c832451	0.016008528
76	0xbdc19b3b	-0.09453436
77	0xbdbf6d31	-0.093469985
78	0xbd3bd066	-0.04585304
79	0xbcac1255	-0.021004835
80	0xbd52e102	-0.051484115
81	0x3c0add3e	0.0084756
82	0xbc0432b5	-0.00806873
83	0x3c620f80	0.013797641
84	0xbd992eb8	-0.07479614
85	0xbdec3f96	-0.115355656
86	0x3d8a3416	0.06748216
87	0x3e1a7c0b	0.15086381
88	0x3cb71a09	0.022351282
89	0xbcb86078	-0.022506937
90	0xbdffd894	-0.12492481
91	0x3bd9fd7d	0.0066525326
92	0x3c1b4647	0.009477205
93	0x3d8ce3d1	0.0687939
94	0x3d6c0d24	0.05762972
95	0x3d863d37	0.065546446

gru2.bias_hh_l0 f4 [96]
0	0x3d515fc9	0.05111674
1	0xbd027109	-0.03184608
2	0x3d9ca292	0.07648195
3	0xbdfcb26c	-0.12338719
4	0x3d210bc9	0.03931788
5	0xbda65718	-0.081220806
6	0xbdd013de	-0.10160039
7	0xbd4fa6b6	-0.050696097
8	0x3e08d11f	0.13361023
9	0xbe2e1680	-0.1700077
10	0x3c9764cc	0.01848068
11	0xbcbb54c3	-0.022867566
12	0xbc71c7f2	-0.014757143
13	0xbdeadb4f	-0.11467611
14	0x3dc59b9b	0.0964882
15	0xbd700a4d	-0.058603574
16	0x3d838dea	0.06423552
17	0x3defd6ed	0.11710916
18	0x3b01e470	0.0019819997
19	0x3dbe66ec	0.092969745
20	0xbd64ad41	-0.05582929
21	0x3d5dfc5b	0.054195743
22	0xbde3cc5b	-0.11122962
23	0xbe1f3436	-0.1554726
24	0xbdafb901	-0.085802086
25	0x3d66671e	0.056250684
26	0xbd80c0cb	-0.06286772
27	0x3df9fe17	0.12206667
28	0xbd532bc3	-0.051555406
29	0xbe0c2728	-0.13686812
30	0xbdb4ea9d	-0.088338114
31	0x3db0030b	0.085943304
32	0x3e09f0f4	0.13470823
33	0x3d58120b	0.052751582
34	0x3c9e15cc	0.019297503
35	0x3d476eec	0.048689768
36	0x3da5ab90	0.080893636
37	0x3e282052	0.16418579
38	0x3e7fb9f5	0.2497328
39	0x3ded3a63	0.11583402
40	0x3e62872c	0.22121876
41	0x3d063d82	0.032773502
42	0x3e273776	0.1632975
43	0x3e8ae700	0.27129364
44	0x3e1efbea	0.15525785
45	0x3df5a398	0.11994094
46	0x3dba2ada	0.090902045
47	0x3df49b3d	0.11943672
48	0xbd1ba053	-0.037994694
49	0xbd8117ea	-0.06303389
50	0x3e674b3d	0.22587295
51	0x3d976d74	0.073939234
52	0x3e470e5f	0.19439076
53	0xbce35e7c	-0.027755015
54	0x3e761cea	0.24034467
55	0x3e6624d2	0.22474983
56	0x3e2147ac	0.15749997
57	0x3d15bbb5	0.036555964
58	0x3dcecd64	0.10097769
59	0x3cd45cb1	0.025923105
60	0x3e28e3e0	0.16493177
61	0x3e23e02a	0.1600348
62	0xbd11bd6c	-0.035581037
63	0xbd940d9f	-0.072291605
64	0xbe1efe12	-0.15526608
65	0x3dca3f50	0.09875357
66	0x3de097a6	0.10966425
67	0x3d8989f2	0.06715764
68	0x3d7a791a	0.061150648
69	0x3c8a5810	0.016887695
70	0x3e0e5497	0.13899456
71	0xbe13ba37	-0.14426504
72	0x3d134fda	0.035964824
73	0x3e074c0d	0.13212605
74	0x3db10f02	0.08645441
75	0x3ddb626e	0.10712133
76	0x3d37da8e	0.044886164
77	0x3da63eef	0.081174724
78	0x3d4dbf5b	0.05023132
79	0xbd91b8f6	-0.071153566
80	0x3ca2d376	0.019876223
81	0xbe17aada	-0.14811268
82	0xbda9cc47	-0.08290916
83	0x3d3b43a8	0.04571882
84	0xbd4d231a	-0.050082304
85	0x3e04607d	0.12927432
86	0xbb32da52	-0.0027290774
87	0xbe1103bc	-0.14161581
88	0xbdcd1595	-0.10013882
89	0x3d22b00f	0.039718684
90	0x3e1eb52d	0.154988
91	0xbdbea4f8	-0.09308809
92	0xbc7fa9b7	-0.015604428
93	0x3e14e3f4	0.14540082
94	0x3dab3b1f	0.08360886
95	0xbe3a2925	-0.18179758

fc.weight f4 [1, 32]
0	0x3b480214	0.0030518817
1	0xba039aff	-0.00050203496
2	0x3b4f7728	0.0031656716
3	0x3a57486d	0.00082123914
4	0xbab5c946	-0.0013869188
5	0x3b4bb8e6	0.003108555
6	0xbb1c0aec	-0.002381022
7	0xbaac6c18	-0.0013154773
8	0xbaaa9f52	-0.0013017452
9	0xba9b74df	-0.0011860392
10	0x3acd40a9	0.0015659529
11	0xbb50b34e	-0.0031845155
12	0xb9e679c7	-0.0004395975
13	0x3a33f90b	0.00068654184
14	0x3b053cdd	0.0020330467
15	0x3a007192	0.0004899736
16	0x3b84898d	0.0040447176
17	0x3ae015e1	0.0017096364
18	0x3ae90769	0.0017778698
19	0x3abc886a	0.0014383916
20	0x3abd41ff	0.0014439224
21	0xbb0b053b	-0.0021212834
22	0xb9db6c58	-0.00041851657
23	0xba94ab93	-0.0011342637
24	0xbb0ef014	-0.0021810578
25	0x3b933e0e	0.0044934815
26	0xba264a9e	-0.0006343516
27	0xba6dfc4e	-0.0009078429
28	0xbb13b6fd	-0.002253949
29	0x3977dc09	0.00023637725
30	0x3b4e2462	0.0031454791
31	0xbb0c2a13	-0.0021387383
